reconstruction/alert/src/main/java/org/jlab/rec/ahdc/AI/model/model.pt (torch, 30224 bytes, 9 tensors)

weight f4 [20, 10]
0.48241276 0.07954663 -0.018711027 0.013676807 -0.5583063 -0.0027270287 -0.040493794 -0.19565095
0.12502219 0.12396998 -0.035966184 0.3342184 -0.31193832 -0.116828136 0.03369002 0.2733839
0.21900673 -0.027384449 -0.13894695 -0.035432026 -0.19622439 0.34901595 -0.2009886 0.24451569
-0.047660243 -0.38773134 -0.08380755 -0.14813799 -0.08439261 0.12340167 -0.14751954 0.34120387
-0.2729775 -0.56181437 -0.16324781 0.027092263 0.18689398 0.35043973 0.17895544 -0.17314084
0.37131298 -0.07571204 0.14785466 0.38474855 -0.18155815 0.259201 -0.27029845 -0.297954
0.066707276 -0.26565394 0.0943921 -0.12985435 -0.06443078 -0.29114893 -0.19147304 -0.27554858
-0.09666936 0.01462813 0.10107779 0.14240785 -0.4809158 0.09928899 0.44386318 -0.3654947
0.086583614 0.0647853 -0.24575686 0.3801221 0.19587696 -0.20656212 -0.22996172 0.38180763
-0.41589725 -0.07374919 0.44036457 -0.27085152 0.2668008 0.111413494 -0.15334512 -0.031399187
-0.042357463 -0.3180391 0.24425757 0.0616153 0.3091599 0.14469923 -0.11967518 -0.009191118
-0.31352618 -0.060322866 0.54168516 0.11696015 -0.11092828 0.044101343 -0.35986173 0.11972415
-0.11008831 -0.07253813 0.10191927 -0.007303171 -0.27691653 0.004289333 0.49142885 0.12722932
0.08176668 -0.15862085 -0.30197448 -0.112574145 -0.00039987158 0.2662863 -0.27124384 0.23471795
-0.1626951 -0.43057546 0.12624209 0.27780634 0.0021852294 -0.007822924 -0.119894855 -0.09244628
-0.14461544 -0.26482472 -0.005018921 0.09272742 -0.22475046 0.27002937 0.083518 -0.16712695
0.046044666 0.079049155 0.1676764 -0.02198594 0.117707096 0.3809896 -0.10842666 -0.28127167
0.09570717 -0.004667969 0.19131348 0.07584252 0.1968774 0.61430794 -0.007032736 -0.18669985
-0.07603642 -0.517842 0.03555853 0.22484195 -0.13154997 0.061109774 -0.031176874 0.32459942
-0.30253327 0.23488557 0.1933749 -0.48908538 0.21230194 -0.17335683 -0.13945585 0.21815261
-0.18222289 0.4491868 0.20291914 -0.5058292 -0.14707442 -0.2782176 0.26766714 0.13988824
-0.058594137 0.15380529 -0.22714803 -0.20695803 0.16162093 -0.02100658 0.26700884 0.30100876
-0.17819788 0.17573105 -0.22759584 -0.21626802 0.116086185 0.31921428 0.29606196 0.27402404
0.31606004 -0.124797255 -0.25870982 -0.117664784 -0.23617896 -0.006435932 -0.13581978 -0.55056953
0.1844201 -0.19699824 0.07667713 0.20247725 0.17146388 0.047491875 -0.038182754 0.26214862
00000000: cefe f63e 58e9 a23d de47 99bc b014 603c
00000010: 29ed 0ebf f3b7 32bb d2dc 25bd b958 48be
00000020: d105 003e f9e3 fd3d 4751 13bd ad1e ab3e
00000030: 61b6 9fbe 9743 efbd 8cfe 093d f9f8 8b3e
00000040: 4d43 603e 5a55 e0bc 1c48 0ebe 2c21 11bd
00000050: 0cef 48be 38b2 b23e f5cf 4dbe 5262 7a3e
00000060: 6337 43bd b984 c6be 4ba3 abbd 7cb1 17be
00000070: 08d6 acbd 04ba fc3d 5d0f 17be 46b2 ae3e
00000080: b5c3 8bbe 11d3 0fbf 6f2a 27be 98f0 dd3c
00000090: 2361 3f3e d66c b33e 1840 373e d54b 31be
000000a0: bc1c be3e ea0e 9bbd 3667 173e c3fd c43e
000000b0: 61ea 39be feb5 843e 8f64 8abe 6d8d 98be
000000c0: d39d 883d cb03 88be a550 c13d 8af8 04be
000000d0: 49f4 83bd 7911 95be 8211 44be b414 8dbe
000000e0: 96fa c5bd d3aa 6f3c df01 cf3d 5dd3 113e
000000f0: 993a f6be 0758 cb3d 0942 e33e 1f22 bbbe
00000100: c052 b13d 28ae 843d b0a7 7bbe 5d9f c23e
00000110: f893 483e 0585 53be 167b 6bbe 4a7c c33e
00000120: 7cf0 d4be d109 97bd 7777 e13e 0dad 8abe
00000130: 1d9a 883e c22c e43d 8106 1dbe 6f9c 00bd
00000140: 057f 2dbd 05d6 a2be a81e 7a3e 5360 7c3d
00000150: 354a 9e3e 092c 143e 4318 f5bd 5896 16bc
00000160: 8186 a0be 1c15 77bd e1ab 0a3f ce88 ef3d
00000170: 5e2e e3bd 9ca3 343d cc3f b8be ef31 f53d
00000180: fb75 e1bd df8e 94bd 0dbb d03d 704f efbb
00000190: 01c8 8dbe 888d 8c3b 909c fb3e 6748 023e
000001a0: 4a75 a73d 816d 22be 669c 9abe 468d e6bd
000001b0: dba5 d1b9 ae56 883e 79e0 8abe e759 703e
000001c0: 8b99 26be 6374 dcbe 9b45 013e a23c 8e3e
000001d0: 1136 0f3b b92b 00bc 6f8b f5bd 7a54 bdbd
000001e0: 1216 14be 1b97 87be c375 a4bb e0e7 bd3d
000001f0: fc24 66be 4a41 8a3e 7c0b ab3d 5423 2bbe
00000200: 5599 3c3d 86e4 a13d 5db3 2b3e dc1b b4bc
00000210: 6b10 f13d 1211 c33e cc0e debd d702 90be
00000220: 1f02 c43d c3f5 98bb aee7 433e 5353 9b3d
00000230: 3b9a 493e 4943 1d3f de72 e6bb 3f2e 3fbe
00000240: fcb8 9bbd 4b91 04bf d2a5 113d f83c 663e
00000250: 09b5 06be 3e4e 7a3d a566 ffbc e531 a63e
00000260: a4e5 9abe d885 703e 1204 463e 6669 fabe
00000270: ae65 593e 7484 31be 84cd 0ebe 6663 5f3e
00000280: a398 3abe d0fb e53e 09ca 4f3e 067e 01bf
00000290: ad9a 16be 8a72 8ebe ab0b 893e dd3e 0f3e
000002a0: 6800 70bd 227f 1d3e 7e99 68be ceec 53be
000002b0: f57f 253e fe15 acbc 62b5 883e d21d 9a3e
000002c0: 8179 36be d7f2 333e e20e 69be 5d75 5dbe
000002d0: 98be ed3d 0e70 a33e 6f95 973e e14c 8c3e
000002e0: 9fd2 a13e b495 ffbd 9d75 84be 3cfa f0bd
000002f0: e6d8 71be 83e4 d2bb 5714 0bbe 20f2 0cbf
00000300: 9fd8 3c3e e8b9 49be e608 9d3d 3256 4f3e
00000310: 3a94 2f3e d786 423d 8565 1cbd 5838 863e

bias f4 [20]
-0.079004586 0.3955532 -0.31038687 -0.3044568 -0.18804751 0.23169617 0.27429712 0.943997
-0.053205874 -0.086424544 0.02342869 0.5873467 0.36469212 0.79189014 0.07896341 -0.18991806
0.4159642 -0.06477884 -0.29612926 0.27782917
00000000: 28cd a1bd f385 ca3e 07eb 9ebe c3e1 9bbe
00000010: 878f 40be c341 6d3e ac70 8c3e caa9 713f
00000020: 67ee 59bd 5aff b0bd 86ed bf3c 5a5c 163f
00000030: edb8 ba3e 50b9 4a3f 91b7 a13d e179 42be
00000040: 42f9 d43e c5aa 84bd 419e 97be a03f 8e3e

weight f4 [20, 20]
0.17260298 -0.059312828 -0.07419152 0.11143297 -0.03360852 0.064320676 0.18709804 -0.753312
0.0059799696 0.13707003 0.07270722 -0.21834747 0.031797245 0.17170037 -0.16206756 0.4507598
-0.21505557 -0.5415703 0.16651575 0.1272055 0.089713514 -0.09283634 -0.1446894 0.50738394
-0.059512276 0.13706614 0.08516899 -0.22248088 -0.2173969 0.38600785 -0.015297742 0.07908573
-0.31781462 0.018824821 0.2564022 0.8944237 0.082645655 0.11685029 0.036007207 -0.055809584
0.16229865 -0.026032096 0.045329455 -0.044251706 -0.074748784 -0.21348846 0.38316327 0.18750438
-0.13795206 -0.13555115 0.41654965 -0.18328078 0.10330984 -0.0001246887 0.101804316 0.3015783
0.05520102 -0.14464289 0.15439276 -0.14740376 0.040079936 0.06476794 -0.21497937 0.42813236
0.020279221 -0.01573394 -0.47903925 -0.2317057 -0.06094223 0.098970115 -0.45879763 -0.010715584
0.13729316 0.24924867 0.22943881 0.2199233 0.031137727 0.17247964 -0.17166111 -0.10533488
-0.03744869 0.08007853 0.2885323 -0.7488276 0.05504141 0.059188016 0.005482737 -0.101660065
0.11856852 0.016317312 0.04327025 0.13513784 0.09254115 0.15179752 0.06223353 -0.26939017
0.018950006 -0.12743472 -0.05422698 -0.038859494 -0.46102282 0.30953774 -0.20243956 -0.12263188
-0.12131586 -0.05880828 -0.49724677 0.04838662 0.078789994 -0.08819606 -0.32053334 0.37586623
0.029320978 0.072202004 -0.06935296 0.041156963 0.01592226 0.3443537 -0.009732938 0.18110135
-0.24585989 0.0983348 -0.03136562 0.19179802 -0.10581693 0.3190449 0.049792685 -0.7440733
-0.03937901 -0.09752759 0.040479388 0.0078111826 0.22064392 0.30500144 0.09404369 -0.87349457
-0.1466447 -0.0010567746 -0.21887626 -0.034104824 0.047879 -0.03454138 -0.1400702 0.092305146
-0.057806425 0.0698808 0.5357269 0.32080942 0.2870073 -0.037944503 0.1920489 0.13570495
0.13672934 -0.15986454 -0.30402935 0.45775703 0.1524096 0.1397432 0.0545059 -0.19850396
-0.52388716 -0.040982027 -0.05182233 0.2293716 0.04210435 -0.20446436 0.0640604 0.19189724
-0.042376954 0.32335877 -0.06496161 -0.063468516 0.021258913 -0.099342525 -0.027180541 -1.1390687
0.28791842 0.042637855 -0.1659898 0.1594142 -0.008969252 -0.051416744 -0.18610175 -1.0285155
-0.020250646 0.11222377 -0.57573456 0.36675698 0.09489152 -0.32463723 0.227856 -0.026049467
-0.05630543 0.14455591 0.48737746 0.15364346 -0.07061055 -0.026563026 0.2130266 0.08571913
-0.009386843 -0.06995055 -0.094892554 0.19732442 -0.13608032 -0.06149064 -0.11786157 -0.23323087
-0.1664255 -0.0028745534 0.123760015 0.34143335 0.08496665 -0.011495883 0.21156958 0.24364696
0.18334775 -0.057422582 -0.45734406 0.30703503 -0.2975953 -0.0045736004 0.23616093 0.45228666
-0.033269253 0.08114324 -0.06293221 0.12796837 -0.28822738 -0.37601864 -0.13895082 -0.06238556
0.30621558 0.12984517 -0.44657373 -0.27785265 0.04211095 -0.12916596 0.12928018 0.034014888
-0.36274162 -0.054762464 -0.32086584 0.28391197 0.13342887 0.0727085 -0.19441175 0.013295208
-0.16242719 -0.24537466 -0.034645498 -0.33361757 0.118702464 0.21829456 0.13443774 0.2191366
00000000: d6be 303e 02f2 72bd b9f1 97bd f836 e43d
00000010: 16a9 09bd 8fba 833d a196 3f3e 0ed9 40bf
00000020: 9ff3 c33b 165c 0c3e 86e7 943d 7b96 5fbe
00000030: d43d 023d 39d2 2f3e 0af5 25be fdc9 e63e
00000040: 8737 5cbe 5aa4 0abf 1b83 2a3e 2942 023e
00000050: b8bb b73d fb20 bebd 7529 14be eae3 013f
00000060: 25c3 73bd 115b 0c3e 146d ae3d 07d2 63be
00000070: 4b9d 5ebe d2a2 c53e 61a3 7abc b3f7 a13d
00000080: 99b8 a2be 8336 9a3c 2647 833e f4f8 643f
00000090: 2042 a93d 344f ef3d 4b7c 133d 9798 64bd
000000a0: 9e31 263e 4341 d5bc 61ab 393d 4741 35bd
000000b0: e415 99bd b89c 5abe fa2d c43e 2601 403e
000000c0: 4e43 0dbe eccd 0abe ff45 d53e f5ad 3bbe
000000d0: 1c94 d33d debe 02b9 c87e d03d 7968 9a3e
000000e0: 771a 623d 441d 14be 2319 1e3e 03f1 16be
000000f0: dc2a 243d 0ea5 843d 8d23 5cbe 2a34 db3e
00000100: 9c20 a63c 77e4 80bc a244 f5be 4244 6dbe
00000110: 8f9e 79bd d8b0 ca3d 86e7 eabe 6b90 2fbc
00000120: 9496 0c3e 0b3b 7f3e 02f2 6a3e 9333 613e
00000130: 8c14 ff3c 819e 303e eec7 2fbe d0b9 d7bd
00000140: cc63 19bd 3600 a43d 81ba 933e 2ab3 3fbf
00000150: 1a73 613d 226f 723d 88a8 b33b 2733 d0bd
00000160: 0dd4 f23d e2ab 853c 253c 313d 9361 0a3e
00000170: 3786 bd3d cf70 1b3e 96e8 7e3d 82ed 89be
00000180: 0b3d 9b3c 3f7e 02be 1c1d 5ebd 222b 1fbd
00000190: 2f0b ecbe bb7b 9e3e 514c 4fbe 6c26 fbbd
000001a0: 7374 f8bd f3e0 70bd 2197 febe 0c31 463d
000001b0: a65c a13d 23a0 b4bd f21c a4be 8a71 c03e
000001c0: 8c32 f03c a5de 933d ed08 8ebd 3494 283d
000001d0: 666f 823c 214f b03e e776 1fbc a272 393e
000001e0: b2c2 7bbe c163 c93d 3d79 00bd b366 443e
000001f0: 8cb6 d8bd da59 a33e 6af3 4b3d 967b 3ebf
00000200: e34b 21bd 8cbc c7bd b7cd 253d f3f4 ff3b
00000210: 7bf0 613e 2629 9c3e fa99 c03d 579d 5fbf
00000220: 072a 16be 7983 8aba 1921 60be 80b1 0bbd
00000230: c51c 443d 437b 0dbd 906e 0fbe 7b0a bd3d
00000240: 6ec6 6cbd aa1d 8f3d 6625 093f 2241 a43e
00000250: 9ff2 923e b26b 1bbd 78a8 443e 3df6 0a3e
00000260: c702 0c3e 88b3 23be bca9 9bbe 215f ea3e
00000270: 4311 1c3e d718 0f3e 9441 5f3d 9f44 4bbe
00000280: 781d 06bf c5dc 27bd a743 54bd 64e0 6a3e
00000290: 9c75 2c3d 1b5f 51be 1932 833d b680 443e
000002a0: 7593 2dbd 488f a53e 980a 85bd c8fb 81bd
000002b0: 2c27 ae3c 1874 cbbd baa9 debc 01cd 91bf
000002c0: 0b6a 933e 08a5 2e3d 3bf9 29be 7a3d 233e
000002d0: c5f3 12bc 5d9a 52bd 7591 3ebe 65a6 83bf
000002e0: afe4 a5bc 93d5 e53d 5763 13bf 92c7 bb3e
000002f0: 7c56 c23d da36 a6be 1553 693e b165 d5bc
00000300: 86a0 66bd 7706 143e 8a89 f93e b654 1d3e
00000310: 449c 90bd b49a d9bc a523 5a3e 838d af3d
00000320: 46cb 19bc 3c42 8fbd 0757 c2bd 6a0f 4a3e
00000330: a458 0bbe 9cdd 7bbd 6861 f1bd 13d4 6ebe
00000340: 726b 2abe 0163 3cbb e475 fd3d 5ad0 ae3e
00000350: ff02 ae3d 3a59 3cbc b2a5 583e 977e 793e
00000360: 83bf 3b3e f133 6bbd 0029 eabe b233 9d3e
00000370: 695e 98be 24de 95bb 2cd4 713e 1e92 e73e
00000380: 5745 08bd 6d2e a63d 9ae2 80bd 240a 033e
00000390: 8a92 93be 8485 c0be 2049 0ebe 0088 7fbd
000003a0: 4ac8 9c3e 22f6 043e 50a5 e4be b442 8ebe
000003b0: 887c 2c3d 1544 04be 0662 043e 3253 0b3d
000003c0: 45b9 b9be 9b4e 60bd 8748 a4be e95c 913e
000003d0: 94a1 083e 32e8 943d e013 47be 25d4 593c
000003e0: 5053 26be 7f43 7bbe 70e8 0dbd eccf aabe
000003f0: 471a f33d 9c88 5f3e 0caa 093e 5865 603e

bias f4 [20]
-0.18682681 -0.1837869 -0.2907753 0.051870972 0.18123923 0.12441615 0.318891 -0.059486333
0.022896368 0.24429522 -0.39956436 0.32930037 -0.12764026 0.15670699 0.016978929 -0.15093784
0.020420093 -0.19666894 -0.059043705 -0.07389958
00000000: 874f 3fbe a232 3cbe 80e0 94be a876 543d
00000010: c796 393e e5cd fe3d ae45 a33e f1a7 73bd
00000020: 2a91 bb3c 8728 7a3e b393 ccbe 0f9a a83e
00000030: 21b4 02be cc77 203e 6517 8b3c 738f 1abe
00000040: 0a48 a73c 9563 49be d0d7 71bd aa58 97bd

weight f4 [20, 20]
-0.09494073 0.079035915 0.22133732 -0.07716956 -0.13605215 -0.30985674 0.25292152 -0.35303456
0.15566692 0.33886632 0.17688288 -0.01915123 0.14697158 0.042125735 0.012424668 0.016068831
-0.03345674 -0.255288 -0.06106479 0.24443604 0.5479603 0.169143 -0.061542314 0.66920894
-0.13592263 0.41685262 0.08039652 -0.0024189202 -0.4039277 0.2045953 -0.056789417 -0.16553003
0.10734398 -0.23145157 -0.027201416 0.045630578 0.025575316 0.14933783 -0.00653489 -0.07322492
0.27782694 0.6512486 -0.31854007 0.53839517 -0.2252558 0.35862836 0.16443744 0.27989978
0.026588764 -0.21347427 0.15618066 -0.060569227 -0.10837336 -0.23331496 -0.08839828 0.2517725
0.17920013 0.05890477 0.16756381 0.40747532 -0.56095433 -0.21212947 -0.100082904 0.28164077
0.111748114 -0.17714028 -0.07086247 -0.061435398 0.09012494 0.18083486 -0.05730179 -0.10998439
-0.021086654 0.20499215 0.050252944 -0.48020294 -0.15742546 0.41099405 0.076642826 0.070603736
-0.48740005 0.2969178 0.19545431 -0.3875679 0.02520345 0.25291592 -0.17056517 0.06466223
-0.30514544 0.17671493 0.10934501 -0.07797273 -0.14547653 0.18357524 0.22470437 0.35287508
0.032480992 0.19101895 0.04714522 -0.1338915 0.49160862 -0.026586179 0.18455014 0.28086975
-0.22247389 -0.14275387 0.15168515 -0.37332997 -0.16668221 0.01313556 -0.016638532 -0.15189229
0.3569971 -0.025207823 0.10951805 -0.048023615 -0.11170796 0.22173618 0.05104665 0.03565874
-0.30550873 -0.21028654 0.16010286 0.03701675 -0.33004808 0.04435931 0.15267803 -0.09013275
0.17195906 0.08005239 0.10851609 0.055273835 0.143244 0.032218557 0.24721411 -0.48833382
0.26534566 -0.23982497 -0.09009414 0.0988957 0.258455 0.31329477 -0.12784176 -0.15734348
0.17570698 -0.32878488 0.1323061 -0.342214 0.019044558 0.050161507 0.035425533 0.17408028
-0.29378232 -0.11265977 0.017431166 0.18520275 -0.48212048 0.106278285 -0.07910102 0.20165232
-0.025465827 0.043552436 0.3170405 -0.23879874 0.024619475 -0.35348675 -0.38626197 0.50848377
-0.08957165 0.034677714 0.20720325 -0.21867631 -0.057291567 0.034277227 -0.09772181 0.40962276
0.16829637 -0.013125105 0.2545961 0.23197944 0.57536125 0.32427368 0.1406252 0.30200225
-0.10282003 -0.4426326 0.079289645 0.22028859 -0.01946094 -0.39516672 -0.014091838 -0.24149227
-0.11173309 0.15097322 -0.034907617 0.065661505 0.13898876 -0.017768797 0.10962054 0.38748917
-0.09798015 -0.101809055 -0.051077563 -0.17281033 0.09887549 0.4329082 -0.02168034 -0.02565966
-0.071572885 -0.30072927 0.5951107 -0.027344074 -0.13019133 0.46721578 0.45813003 -0.23390713
0.07370445 0.31102088 0.29551557 -0.0652021 -0.47681347 -0.08106035 -0.40084437 -0.033916764
-0.17151332 -0.11365775 -0.02220476 -0.017741522 0.16676158 0.27044588 0.069580086 -0.21939161
0.09330557 0.16819477 0.15079914 0.04091715 -0.33739427 -0.06991784 -0.15112087 0.32299817
-0.78060883 0.057872433 -0.14437893 -0.32447928 -0.082464635 -0.58987564 0.07545563 0.15081657
0.25563106 0.42218608 -0.20136829 -0.06252732 0.26514274 -0.25115424 0.2857381 0.005497261
00000000: 4970 c2bd 95dd a13d 40a6 623e 130b 9ebd
00000010: 4151 0bbe 8ba5 9ebe ee7e 813e f2c0 b4be
00000020: 2667 1f3e e37f ad3e c920 353e 0ae3 9cbc
00000030: b87f 163e 098c 2c3d d690 4b3c c8a2 833c
00000040: ef09 09bd 1cb5 82be 131f 7abd 714d 7a3e
00000050: 2047 0c3f d333 2d3e cb13 7cbd 4751 2b3f
00000060: 4d2f 0bbe b56d d53e eea6 a43d bf86 1ebb
00000070: 9dcf cebe 6e81 513e 059c 68bd b480 29be
00000080: 29d7 db3d a401 6dbe 81d5 debc 21e7 3a3d
00000090: 5383 d13c 04ec 183e a122 d6bb f2f6 95bd
000000a0: 553f 8e3e 3ab8 263f af17 a3be 44d4 093f
000000b0: 75a9 66be 239e b73e 4a62 283e 064f 8f3e
000000c0: aed0 d93c 0099 5abe d3ed 1f3e 7017 78bd
000000d0: daf2 ddbd 1eea 6ebe 280a b5bd 53e8 803e
000000e0: 3d80 373e 2146 713d d995 2b3e 9ba0 d03e
000000f0: b49a 0fbf 7838 59be 44f8 ccbd 3833 903e
00000100: 32dc e43d 4364 35be 5820 91bd afa3 7bbd
00000110: 6d93 b83d c62c 393e 48b5 6abd 7f3f e1bd
00000120: ebbd acbc 76e9 513e 08d6 4d3d 29dd f5be
00000130: 2434 21be d06d d23e eaf6 9c3d b198 903d
00000140: 808c f9be 9c05 983e 2d25 483e 4d6f c6be
00000150: 7777 ce3c 327e 813e a3a8 2ebe a26d 843d
00000160: 063c 9cbe c2f4 343e 47f0 df3d 2bb0 9fbd
00000170: cdf7 14be 26fb 3b3e e718 663e 0bac b43e
00000180: ca0a 053d 799a 433e 591b 413d da1a 09be
00000190: 20b4 fb3e 42cb d9bc b6fa 3c3e 29ce 8f3e
000001a0: 32d0 63be 122e 12be 5a53 1b3e 1b25 bfbe
000001b0: beae 2abe 8836 573c 884d 88bc a789 1bbe
000001c0: 53c8 b63e a380 cebc 004b e03d 69b4 44bd
000001d0: 25c7 e4bd cf0e 633e 4b16 513d e60e 123d
000001e0: a46b 9cbe 5b55 57be 01f2 233e e09e 173d
000001f0: 10fc a8be 1cb2 353d a157 1c3e 8597 b8bd
00000200: 0916 303e 82f2 a33d af3d de3d d166 623d
00000210: 8eae 123e 9bf7 033d b225 7d3e e406 fabe
00000220: 63db 873e ad94 75be 4783 b8bd d489 ca3d
00000230: 3754 843e 2c68 a03e f3e8 02be a61e 21be
00000240: 88ec 333e 7e56 a8be 407b 073e ac36 afbe
00000250: 5503 9c3c 2776 4d3d 5d1a 113d 1a42 323e
00000260: a36a 96be 2aba e6bd cecb 8e3c caa5 3d3e
00000270: 7fd8 f6be 6ea8 d93d b7ff a1bd f27d 4e3e
00000280: b69d d0bc 0a64 323d 2253 a23e a887 74be
00000290: c8ae c93c 37fc b4be 21c4 c5be fe2b 023f
000002a0: 5771 b7bd 380a 0e3d 172d 543e afec 5fbe
000002b0: 90aa 6abd 4766 0c3d 5f22 c8bd 13ba d13e
000002c0: e255 2c3e ae0a 57bc 6c5a 823e 058c 6d3e
000002d0: e04a 133f 3307 a63e 0d00 103e 0aa0 9a3e
000002e0: 4f93 d2bd bda0 e2be 9c62 a23d 5593 613e
000002f0: 8d6c 9fbc 4b53 cabe 74e1 66bc c049 77be
00000300: 51d4 e4bd b998 1a3e 4afb 0ebd 8a79 863d
00000310: 1253 0e3e de8f 91bc bc80 e03d fb64 c63e
00000320: d1a9 c8bd 4481 d0bd b536 51bd 31f5 30be
00000330: 3c7f ca3d 25a6 dd3e f89a b1bc 3534 d2bc
00000340: ce94 92bd 30f9 99be 2d59 183f ae00 e0bc
00000350: e050 05be e836 ef3e 0590 ea3e 5a85 6fbe
00000360: 5cf2 963d 213e 9f3e d14d 973e ae88 85bd
00000370: e520 f4be f802 a6bd 793b cdbe 4eec 0abd
00000380: 30a1 2fbe 65c5 e8bd c2e6 b5bc ab56 91bc
00000390: 8cc3 2a3e e277 8a3e 0180 8e3d 32a8 60be
000003a0: fe16 bf3d 403b 2c3e 176b 1a3e be98 273d
000003b0: f1be acbe 1631 8fbd 6ebf 1abe 0460 a53e
000003c0: fbd5 47bf a50b 6d3d 12d8 13be 2622 a6be
000003d0: 38e3 a8bd 1702 17bf 7b88 9a3d a96f 1a3e
000003e0: 13e2 823e c628 d83e 7d33 4ebe 530e 80bd
000003f0: cac0 873e 4a97 80be 444c 923e 5e22 b43b

bias f4 [20]
-0.22081465 -0.04336896 0.0020141662 0.26937297 -0.25397155 -0.38017777 0.43309912 0.28197747
-0.012161099 -0.19029634 0.1665141 -0.061330095 0.46493065 0.32772762 -0.14290369 -0.021267843
-0.14861944 0.44254106 -0.27765694 0.37946934
00000000: 3c1d 62be a7a3 31bd 1a00 043b 41eb 893e
00000010: 8f08 82be a9a6 c2be 2bbf dd3e 5a5f 903e
00000020: 593f 47bc 0bdd 42be ac82 2a3e 4435 7bbd
00000030: 640b ee3e eacb a73e 5855 12be e639 aebc
00000040: b22f 18be be94 e23e 0d29 8ebe ce49 c23e

weight f4 [20, 20]
0.09728787 0.4646064 0.4937394 -0.17191215 0.4026392 0.12047431 -0.15517187 0.03207005
0.49468434 0.188967 -0.029904537 -0.38720304 -0.51469094 -0.26480547 0.32039776 0.066339664
0.26836982 -0.13006005 0.8734574 -0.27294672 0.28912848 0.14733051 0.23279057 0.017548196
0.22404544 0.23851103 0.13143878 -0.08811404 0.10286529 0.20565864 0.27871868 -0.11545349
-0.443454 0.04371273 0.22518189 0.16748823 0.22228155 -0.24481104 0.4624798 -0.2450337
-1.4284878 0.49666706 0.57620317 -1.2320704 -0.3883422 -0.8540944 0.17310287 0.7007685
0.28741345 0.47014478 -0.57814157 -1.626861 0.28039658 0.17786422 0.26991656 0.3988034
0.5269616 0.59746224 -1.4925383 -0.9563573 0.0003765999 -0.43367326 -0.62568825 0.17577264
-0.09126292 -0.3746586 0.16160704 -0.26663712 -0.32172006 0.25438493 0.06944139 0.34414193
-0.019326728 0.08843684 -0.2433466 0.045004923 0.26932505 0.4708601 -0.23122291 -0.27224636
0.15394641 0.10319691 -0.17358993 0.07135109 0.18577653 0.07932754 0.37015215 -0.9572737
0.27108693 0.49777597 -0.2215462 0.19001709 -0.28873643 0.105590634 0.27103645 -0.1683072
0.13002895 -0.069508985 0.5118262 -0.61712134 -0.0079782745 0.64321357 -0.058829114 -0.640861
0.0371551 -0.1510707 -0.004663305 0.22598577 0.08988021 0.06633214 -0.33114463 -0.17899893
0.43579444 -0.23257066 -0.36590967 -0.3427505 0.43486115 -0.21137524 -0.25921717 0.7021186
-0.09473556 -0.5527969 -0.41890398 0.08207507 -0.0012109218 -0.30694607 0.013806266 0.0011829137
-0.689772 -0.3826562 0.21821196 0.22217657 0.14766935 0.20321326 0.20246968 0.09433781
-0.6981302 0.2739731 -0.122372456 0.21896319 0.30632535 -0.54144245 -0.20851639 0.47444126
0.0568851 0.0312197 0.033394393 0.0802196 0.39513317 0.3501173 -0.104829565 -0.033737034
0.054777954 0.079932705 0.15996817 0.23740783 0.13294274 0.13224532 1.0546113 0.19243492
-0.06304781 0.18612018 0.4027778 -0.14367673 0.05053845 0.05401412 0.003955283 -0.23272811
0.3550023 0.030607298 0.16568762 -0.3225123 -0.35746878 -0.20577009 0.26348308 -0.15705256
0.1644407 0.003948716 0.97860485 -0.19626045 0.3682965 0.41680285 0.43814418 -0.24954748
0.24940935 0.29189134 -0.13110578 -0.3847407 0.3433648 0.3240492 0.10729823 -0.04454799
-0.5712925 -0.12900606 0.21392523 0.0021156392 0.22414856 -0.11532207 0.6793533 0.08626744
-0.46284634 0.49382865 0.3137284 -0.4380509 -0.46318683 -0.7437168 -0.13736822 0.888817
0.33227324 0.32581025 -0.94851124 -0.2369969 -0.17765874 0.36115813 -0.05469828 0.17063639
0.14875881 0.4760415 -1.0803932 -0.123408504 -0.17771347 -0.47931552 -0.4142038 -0.03461308
-0.0641302 -0.16827501 0.26465333 0.11907921 -0.25378487 -0.8584836 0.23051153 0.11649756
0.30275384 -0.055606723 0.1380874 -0.11854299 -0.42295012 0.29350877 0.38320485 0.26347455
-0.15927581 -0.26205438 -0.2141908 0.016230801 0.12280001 0.07291168 0.24868803 0.06501898
-0.41306284 -0.27897337 0.22561441 0.18025146 0.3160254 0.04399574 -0.14871089 -0.31318864
00000000: dd3e c73d e4e0 ed3e 69cb fc3e bd09 30be
00000010: ba26 ce3e 3cbb f63d 60e5 1ebe e25b 033d
00000020: 4447 fd3e 9180 413e 5cfa f4bc 7a3f c6be
00000030: c9c2 03bf 9594 87be 2d0b a43e 17dd 873d
00000040: c567 893e 762e 05be e79a 5f3f acbf 8bbe
00000050: a608 943e cfdd 163e a760 6e3e 3cc1 8f3c
00000060: 2b6c 653e 3c3c 743e e397 063e 2275 b4bd
00000070: 0aab d23d 2e98 523e 37b4 8e3e e172 ecbd
00000080: 670c e3be 1f0c 333d 1596 663e 0982 2b3e
00000090: c69d 633e bfaf 7abe 27ca ec3e 1dea 7abe
000000a0: b0d8 b6bf 254b fe3e 0d82 133f 7cb4 9dbf
000000b0: cad4 c6be eea5 5abf e141 313e 9065 333f
000000c0: db27 933e d1b6 f03e 1601 14bf fb3c d0bf
000000d0: 2490 8f3e 0a22 363e 8132 8a3e f62f cc3e
000000e0: f5e6 063f 49f3 183f 7f0b bfbf d5d3 74bf
000000f0: 6272 c539 6c0a debe 1b2d 20bf befd 333e
00000100: 0ee8 babd 41d3 bfbe 517c 253e a984 88be
00000110: 7eb8 a4be be3e 823e 4a37 8e3d 5f33 b03e
00000120: 1653 9ebc 601e b53d da2f 79be 1557 383d
00000130: f9e4 893e 9314 f13e b3c5 6cbe e063 8bbe
00000140: 21a4 1d3e e758 d33d 8fc1 31be 8520 923d
00000150: 343c 3e3e 7a76 a23d 9584 bd3e e40f 75bf
00000160: e8cb 8a3e 7edc fe3e 02dd 62be d793 423e
00000170: 43d5 93be e73f d83d 4ac5 8a3e b958 2cbe
00000180: 4f26 053e ba5a 8ebd 0b07 033f aafb 1dbf
00000190: 4fb7 02bc a5a9 243f ccf6 70bd 770f 24bf
000001a0: f22f 183d 47b2 1abe a3ce 98bb d068 673e
000001b0: 1e13 b83d 25d9 873d ca8b a9be 7f4b 37be
000001c0: 7320 df3e 0127 6ebe 8358 bbbe fe7c afbe
000001d0: 1fa6 de3e c072 58be 1db8 84be 0bbe 333f
000001e0: b804 c2bd 1984 0dbf 957a d6be f916 a83d
000001f0: cbb7 9eba 0928 9dbe ad33 623c ff0b 9b3a
00000200: e694 30bf 83eb c3be f572 5f3e 4182 633e
00000210: a236 173e 2317 503e 3654 4f3e 2f34 c13d
00000220: a9b8 32bf 3446 8c3e 699e fabd e337 603e
00000230: add6 9c3e f99b 0abf 5285 55be f7e9 f23e
00000240: 5a00 693d 75c0 ff3c 8fc8 083d 2c4a a43d
00000250: e54e ca3e 9342 b33e e2b0 d6bd d82f 0abd
00000260: d95e 603d c2b3 a33d b2ce 233e 0a1b 733e
00000270: 2422 083e 516b 073e 81fd 863f a90d 453e
00000280: 361f 81bd 4a96 3e3e e438 ce3e fe1f 13be
00000290: 6801 4f3d e93d 5d3d 529b 813b 4750 6ebe
000002a0: ddc2 b53e 28bc fa3c 04aa 293e 5520 a5be
000002b0: 2606 b7be 65b5 52be 41e7 863e 63d2 20be
000002c0: 2563 283e 3b64 813b d985 7a3f 80f8 48be
000002d0: 5c91 bc3e 2f67 d53e 6f54 e03e 6089 7fbe
000002e0: 2a65 7f3e c872 953e 9840 06be bcfc c4be
000002f0: 83cd af3e c7e9 a53e 2dbf db3d f477 36bd
00000300: 3a40 12bf 2a1a 04be 370f 5b3e 89a6 0a3b
00000310: 3387 653e fa2d ecbd 19ea 2d3f fcac b03d
00000320: 32fa ecbe 1cd7 fc3e 02a1 a03e 3548 e0be
00000330: d326 edbe 3964 3ebf 41aa 0cbe 8389 633f
00000340: b81f aa3e 9ad0 a63e a2d1 72bf 51af 72be
00000350: 2cec 35be b8e9 b83e 4e0b 60bd 4ebb 2e3e
00000360: 3b54 183e b6bb f33e 534a 8abf 99bd fcbd
00000370: 85fa 35be d868 f5be 8512 d4be 72c6 0dbd
00000380: b256 83bd 4950 2cbe a480 873e cddf f33d
00000390: 17f0 81be 95c5 5bbf 370b 6c3e 4696 ee3d
000003a0: 8d02 9b3e e0c3 63bd c966 0d3e abc6 f2bd
000003b0: eb8c d8be c846 963e 6d33 c43e 23e6 863e
000003c0: 3319 23be fe2b 86be d554 5bbe 75f6 843c
000003d0: 927e fb3d b852 953d 13a8 7e3e ac28 853d
000003e0: f97c d3be 99d5 8ebe 7707 673e d793 383e
000003f0: 15ce a13e e134 343d ab47 18be 435a a0be

bias f4 [20]
-0.14363061 0.00071033026 0.49809256 -0.23345843 -0.1164788 -0.037029322 0.17912021 -0.27853784
-0.11049021 -0.39089835 0.59641874 0.3513733 0.15275799 -0.00874052 -0.17815676 0.39212078
-0.16443004 0.106593266 0.37802607 0.47380134
00000000: e713 13be 7535 3a3a fd05 ff3e ba0f 6fbe
00000010: 708c eebd 0fac 17bd 4a6b 373e 839c 8ebe
00000020: b148 e2bd d423 c8be e6ae 183f 34e7 b33e
00000030: 976c 1c3e 6634 0fbc ba6e 36be 0ec4 c83e
00000040: 5960 28be 924d da3d a28c c13e 1796 f23e

weight f4 [1, 20]
-0.80167216 -0.31412035 1.1451191 -0.8197937 -0.57621825 0.82549226 0.22816631 -0.38791656
-0.3045293 -0.2952407 0.8909979 0.3965209 0.27201578 -0.04784002 -0.41965458 0.56724584
-0.43287852 0.45186335 0.44972238 0.57098633
00000000: 633a 4dbf 62d4 a0be 4393 923f 00de 51bf
00000010: 0a83 13bf 7653 533f 6ea4 693e 009d c6be
00000020: 44eb 9bbe ca29 97be 7018 643f ca04 cb3e
00000030: a745 8b3e e6f3 43bd f7dc d6be 0637 113f
00000040: 41a2 ddbe a25a e73e 0342 e63e 292c 123f
